model.pth (torch, 408896 bytes, 4 tensors)

fc1.weight f4 [128, 784]
00000000: 48c8 053d 4e2c c4bc ee4f 13bb 51f2 bdbc
00000010: 4a05 d0ba e54e 063c ba4a 81bc 0557 263c
00000020: 2c61 91bc aea0 a0bb 5135 d03c 0a1b a9bb
00000030: bf9a e33c 1862 453d dce9 843d 3539 5a3c
00000040: f102 dbbc 9c73 8ebc 034e 0abd 6d2d 04bd
00000050: c17a 5b3c ce75 43bc 71b2 babc 4efc e93c
00000060: b8e2 e9bb 5321 8bbc 0a1f 3ebc d0a2 853c
00000070: 9bd7 013d ca02 bb3c 2a2f 18bc c1cb 65bc
00000080: 653a af3b c329 4cbd c50e 6dbd 8572 0ebd
00000090: a8b4 c9bd 6ae2 9dbd c395 97bd e3f9 3bbc
000000a0: 0e3b a1bd 6db2 5cbd fe8d b3bd 0c67 78bd
000000b0: a7d6 383c d8bc a4bd 8581 7bbd 7fcd 70bd
000000c0: b2ff 99bd 4a12 d3bd 9c9b d8bd 9659 eebb
000000d0: cee0 00bd 0e56 503c 3a51 8ebc 13d8 62bc
000000e0: 1ac7 9e3c b2a7 0b3d 0501 55bc ce08 6a3d
000000f0: f96f 10bd 7f83 30bd dc27 bbbd 566b a6bd
00000100: 9518 f8bd 3db4 a2bd 0fd7 27be aa8c 31be
00000110: b778 71bd 0655 3dbd acd5 1abe 21fa 0cbe
00000120: b739 e5bd b536 89bd e8aa d4bd ef81 26be
00000130: 0c59 55be b180 0ebe f398 04be 0d8b 1bbe
00000140: f663 a8bd cf55 263b f5bc e3bc c80c 083d
00000150: 4aaa 26b9 ae0c 96bb 684b febc 37f6 b6bb
00000160: df56 58bd c62b ebbd 05a9 1abe aade 10be
00000170: c532 28be 33ff e6bd c09a e8bd 1ac7 1bbe
00000180: e115 8ebd 4967 28be dcca 83be b535 87be
00000190: 480e 2abe 88a3 b9bd 4c87 0fbe 10a8 12be
000001a0: 002f febc 9ee7 98bc f3fd 3fbd dcfd cebd
000001b0: 17d0 03bd 68b5 5d3d c88f a03d 2edc b9bc
000001c0: 1e08 bb3c 9c79 eebb e77e c4bd 0337 dd3c
000001d0: ec7a 9abd 8464 2ebe f6fa 6fbe 3c73 10be
000001e0: 0f52 4dbe 3e21 22be 0f88 3fbe 8318 10be
000001f0: f9f2 f2bd 2c82 f7bd bcaf 0abe 1fac febd
00000200: dfce 0ebe 8ace 73bd 5745 b6bd 581c f5bd
00000210: 1b3f 1bbe c913 05be 430d 88bd 083e 9cbd
00000220: afe6 233c eca8 96bb 092f 8dbd 8c98 02be
00000230: 5a94 963c 010c 363c b98f e5bd 6ed6 07bd
00000240: 748b adbd 563c 0fbe 179b 49be 6f20 09be
00000250: 557d 40bd 847b b4bd 08fc d7bd ced6 d7bd
00000260: aa73 f1bd bb48 08be a382 2ebe b999 2ebe
00000270: 9f7a 53be b800 7bbe 1b20 2cbe 8e01 41be
00000280: ee9a 18be 463d 88bd 50d8 28bc e7cd 19bd
00000290: eec6 88bd be6d 05bd fe92 00bd 9a17 3cbd
000002a0: 0061 053d 4937 aebd deed 653d 7ff2 113d
000002b0: 38df 87bc 33e1 403b 2d4c 06bc 9318 8cbd
000002c0: ab82 81bd 22e4 d8bd 4386 d4bd bd08 8abd
000002d0: 36f5 aebd 6b70 9fbd 860d 2cbd d1e5 90bd
000002e0: 4c84 01be 786c 9cbd e50c 5bbd 74a3 34bd
000002f0: fcab e6bc 792e 893c 2515 2d3d 5a48 93bd
00000300: e28d b1bc a9cf 13bd 1986 5e3d 35ff 0dbd
00000310: e4fe 093d d6ed 9cbd 2e61 1a3e 2631 cc3d
00000320: fe15 ccbc f096 d6bc ea78 5b3b 00b7 42bd
00000330: ae3c 86bd 0a18 04bd b643 fd3c 1f20 e53c
00000340: 33c5 283d a8af 8a3d b33d 1e3d dc54 ee3c
00000350: 5190 8f3d c96a 9c3d 155b 723d 7bb1 9a3d
00000360: 16fc 1c3c e9a7 0e3d 4259 243d 32be cd3c
00000370: 8200 5abc 5b0b 9c3c 0b5d 713d 0573 b0bc
00000380: 1dde 7fbc f7e4 213d 58f4 9c3d 4e68 283d
00000390: 0515 ecbd 48ec 09bd 1f94 ebbb 187a e4b8
000003a0: 12a9 0f3c eaf3 373d e2ec 0f3d 50ae c93d
000003b0: 3bd8 d13d 32f2 0b3e e6a9 0d3e f291 ff3d
000003c0: aaad 033e e6ab ec3d d97a a93d 0c40 0e3d
000003d0: 28ba c53d f4b5 2a3d 5719 323d 9c37 fe3d
000003e0: bb70 973d 1dd1 6d3d c7dc a1bd e07d 90bb
000003f0: 1fc0 8a3d 1c0c 9a3d 1130 893d c095 cdbb
0.032661706 -0.023946907 -0.0022478062 -0.023186835 -0.0015870717 0.008197521 -0.015782703 0.010152583
-0.01774653 -0.004901967 0.025416048 -0.005160694 0.02778375 0.048189253 0.06489918 0.013319303
-0.026734801 -0.017389111 -0.033765804 -0.032269884 0.013395966 -0.011929942 -0.022790166 0.028562691
-0.0071376227 -0.016983664 -0.01160408 0.016312987 0.031699758 0.022828478 -0.009288589 -0.0140256295
0.0053475373 -0.049844515 -0.057875413 -0.034777183 -0.098489106 -0.07709201 -0.07401612 -0.011473152
-0.07872592 -0.053881098 -0.08767317 -0.06064515 0.011281646 -0.080438316 -0.061402816 -0.058789726
-0.07519473 -0.10306223 -0.10576555 -0.007273863 -0.03146439 0.01271583 -0.017372716 -0.013845461
0.019382048 0.034095474 -0.013000731 0.057137303 -0.035263035 -0.043094154 -0.09138462 -0.081259415
-0.12114064 -0.07944534 -0.16390632 -0.17338815 -0.058953013 -0.046223663 -0.15120572 -0.13767292
-0.11192649 -0.06699888 -0.1038416 -0.16260503 -0.2083475 -0.1391628 -0.1294897 -0.15189762
-0.08222191 0.0025380736 -0.027800063 0.033215314 -0.00015894431 -0.0045791483 -0.031041816 -0.0055835503
-0.05281722 -0.114829585 -0.15103538 -0.1414744 -0.16425617 -0.11279144 -0.11357641 -0.1521267
-0.06937767 -0.1644565 -0.25740707 -0.26408163 -0.1660701 -0.09064394 -0.14016455 -0.14321923
-0.03102827 -0.018665131 -0.046873044 -0.101070136 -0.03218087 0.05412808 0.07839924 -0.022687998
0.022831019 -0.0072776806 -0.09594517 0.02700377 -0.07542977 -0.17030531 -0.23435578 -0.14106458
-0.20050834 -0.15832993 -0.18704246 -0.1407185 -0.118627496 -0.12085375 -0.135436 -0.12435173
-0.13946103 -0.059523143 -0.08899944 -0.11968297 -0.15160792 -0.12995829 -0.066431545 -0.07629019
0.01000373 -0.004597774 -0.06893737 -0.12753505 0.018381286 0.01111126 -0.112090535 -0.03316348
-0.08473864 -0.1398786 -0.19688068 -0.13391279 -0.046994526 -0.08812621 -0.10546118 -0.105390176
-0.11789639 -0.13308994 -0.17042021 -0.17050828 -0.20652245 -0.24511993 -0.16809122 -0.1884825
-0.14902851 -0.06652312 -0.010305479 -0.03754988 -0.06678568 -0.03257536 -0.031390183 -0.045920946
0.03256321 -0.085066386 0.05613505 0.035631653 -0.016585931 0.0029431104 -0.008196873 -0.06840625
-0.06323751 -0.10590388 -0.10377171 -0.06739948 -0.08542864 -0.07785114 -0.042005084 -0.07075084
-0.12648124 -0.07637876 -0.053479094 -0.044101194 -0.02815818 0.016745793 0.042256493 -0.07191534
-0.0216741 -0.036086712 0.054327104 -0.034667213 0.03369035 -0.07662551 0.15076134 0.09970312
-0.02491283 -0.02619502 0.0033488818 -0.047537804 -0.065545425 -0.032249488 0.030916076 0.027969418
0.04120369 0.06771785 0.03863306 0.029093198 0.07009948 0.07637555 0.059168894 0.07553383
0.009581586 0.0348281 0.040124185 0.025115106 -0.013305785 0.019048383 0.058926623 -0.02153922
-0.015616921 0.039525 0.07663792 0.041115098 -0.11527447 -0.0336726 -0.0071892883 -0.00010894629
0.008768337 0.04491035 0.03513802 0.098477006 0.10246321 0.13666609 0.13834342 0.12479009
0.12859216 0.115562245 0.082753845 0.03472905 0.09654647 0.04167743 0.043481197 0.124129504
0.073945485 0.058060754 -0.07903438 -0.0044095367 0.067749254 0.07521841 0.06698621 -0.006273955

fc1.bias f4 [128]
00000000: 276e 1d3e e734 e23d b874 823d 0dc0 1b3e
00000010: d3f0 3fbd 36c3 f5bc 5435 aa3d 1503 053e
00000020: 2994 c43d 0dfe 793d 3150 3c3e 139f df3d
00000030: 4f76 9fbd 208c b2bc fe82 433c 32a4 4c3d
00000040: a93b 0cbd 2f52 c13d 0178 483d f47c cc3d
00000050: 90aa d33d d215 1d3d 6721 893d 5009 df3d
00000060: b888 afbc f3dd 043e 2e23 31bc 91ab dd3d
00000070: dcea c7bd c1dd c63d f7d2 86bc 4049 9fbd
00000080: 5186 6a3c 0eb2 fcba 75ee 2f3e fade 26bb
00000090: 6a2f db3c c253 653e fdc3 cb3d c4a5 bc3c
000000a0: a13f fa3a 3c88 713d e984 bdbb c34e 12be
000000b0: 4f8f 86bd 6254 893d ae74 99bc 6088 493d
000000c0: dc55 29bd 8c7e 083d 77d7 523d c389 2abd
000000d0: 9710 923d 5542 14bd 451e 353e 553a f1bc
000000e0: d9f0 0d3e 0b2b fe3d b0ff 903d a50b a93d
000000f0: 0efc 39bd 9f09 943d 1cf1 99bc 24ee 89bc
00000100: e6a3 26bd 678c 68bd 2b41 ed3d c86a 5a3d
00000110: 32ba 85bd c095 6dbd 1ec7 e6bc f8bb e53d
00000120: fc75 fa3b ec7d 2839 8d09 2dbd e81b ef3b
00000130: 3e72 8d3d 4abd 32bd 9889 133e d61f b03c
00000140: 2e39 b53c bed6 c03c 0b70 7ebb d419 b73d
00000150: a069 633d 912c 5a3d b1c5 c63d e46a 8cbd
00000160: e31d 433d a64b 203d 486b cf3d cd83 94bd
00000170: e988 533d 5160 ed3d d399 66bd 797f ab3d
00000180: f7a9 b83d eab6 3a3e b51e 1f3d 8c11 06be
00000190: 872c 8ebd e5b1 763d 8390 85bd 9227 a8bb
000001a0: 0242 0dbe 91e1 6b3d 5616 8ebd a0c2 863d
000001b0: f2b2 dbbc d8fb d43d ea03 51bc 9e74 9c3b
000001c0: be86 2bbd deb1 0e3e 90c6 28bd 695a e73c
000001d0: 5202 ff3b e07f b83d 1138 24be 8a50 e43b
000001e0: 733e 343d 5a4e 663d b661 833d 0239 053e
000001f0: 233b eebd 190e 18bb 6366 b6bc 3c40 febc
0.15374051 0.110452466 0.063699186 0.1520998 -0.046860527 -0.03000031 0.08310953 0.12989457
0.09598572 0.061033297 0.18389966 0.10919013 -0.077862374 -0.021795332 0.011933086 0.049961276
-0.034236584 0.094395034 0.04894257 0.099847704 0.103352666 0.038350888 0.06695824 0.10890448
-0.021427497 0.12975292 -0.01081161 0.10823739 -0.09761593 0.09710265 -0.016458018 -0.07777643
0.01431425 -0.0019279139 0.17180808 -0.0025462494 0.026756007 0.22395232 0.09949491 0.023028262
0.0019092449 0.058967814 -0.0057836664 -0.14287858 -0.06570303 0.06705548 -0.018732395 0.049202323
-0.041341648 0.03332381 0.051475015 -0.041635286 0.071320705 -0.03619607 0.17687328 -0.02944676
0.13861407 0.124105535 0.070800185 0.08254174 -0.045406394 0.072283976 -0.018791728 -0.016837187
-0.04068365 -0.056774523 0.115846954 0.05332449 -0.065296546 -0.05800414 -0.028171118 0.11217493
0.0076434594 0.00016068638 -0.042245436 0.007297028 0.069065556 -0.04363755 0.14407957 0.021499556
0.022121992 0.023539897 -0.0038824107 0.08940473 0.055520654 0.053265158 0.097056754 -0.06856325
0.047635924 0.039134644 0.10127884 -0.072517015 0.05164424 0.115906365 -0.056299042 0.08373923
0.09016793 0.18233839 0.038847644 -0.13092631 -0.06942087 0.060228247 -0.06521704 -0.0051316703
-0.13794711 0.057588164 -0.06937854 0.065800905 -0.026818726 0.10399598 -0.012757281 0.004774644
-0.041876547 0.13935038 -0.04120499 0.028241353 0.007782259 0.09008765 -0.16037013 0.006967609
0.04400487 0.056227066 0.06415121 0.13010028 -0.11632373 -0.0023201762 -0.022265619 -0.031036489

fc2.weight f4 [10, 128]
00000000: 70e9 013e 4650 9abd 8a26 2bbd b644 d03d
00000010: 727e ed3d a730 c23d 540f c1be 1c99 d5be
00000020: 8dc6 3bbe 004c 1d3d 60f0 4a3d 243e 27be
00000030: 52ac 0ebe 6493 1f3a 3058 95bd 00ee b1be
00000040: 73c4 ba3d d287 6cbe 2b6c 043d fbf4 ffbe
00000050: c08a 1b3e 891f 31be 8c56 4cbe 969e ba3b
00000060: 4470 a8bd dc3b 833d 5998 62be a4a9 bc3d
00000070: 17b8 31bd 3a55 293e 3dd0 0e3e 1f58 0a3e
00000080: 0191 c6be c1ad 11be 9419 1fbe 7ee3 fe3d
00000090: f2fd 23be 603a 09be 60b1 013e 470f 583d
000000a0: 7b2f 76bd 8370 e8bd c9e5 8abe c5ba 243d
000000b0: 4a78 193c e0c5 993e 339e 253d 052b d4be
000000c0: 7006 0dbe eed8 8bbe f2f3 753d 55b1 e53d
000000d0: 6ab3 973d 17c3 ba3c 379b 9abe 1d37 0e3e
000000e0: c97c 51bd db5d a53d 5836 db3d d723 1b3c
000000f0: bc65 d63d 4d89 f6bc 6fda 4bbe 6b99 c53d
00000100: db71 4b3d e9c9 0f3e 6ed7 35be c1fe dcbd
00000110: 9e6a 233e 918f 2dbd 1c04 eb3d 7e23 cdbc
00000120: 884f cabd d10d 5cbe 24da 04be 81ac c63d
00000130: b4f3 333e ec25 27be 12df db3d 12a0 87bd
00000140: c2b9 0ebe 7b33 46bc 77d5 0d3e 7803 31be
00000150: 88b1 543d 034f e23d 2b2b 373d 7bed 2bbe
00000160: 4b14 8d3d 3305 d13d c02e 2ebe 7592 a9be
00000170: 0805 e4be 029a 45be 422c 353e 5a93 03be
00000180: a1d4 c33d 1f60 c73d 800a 65be 7f88 b9be
00000190: ee8f 6fbe b34b 0f3e 1a95 613e b912 b73d
000001a0: 673c 833d f8c2 32be 28ee 73bd 026d 68be
000001b0: d233 7fbd 810c ebbe 72ec b6be 791d 31bb
000001c0: c756 23be b6f9 0abe 3be9 333e c390 293e
000001d0: c058 a93c 265e 993d 2917 143e ad4e e83d
000001e0: d243 523d cdd2 b9bd a5c5 193e 367d 53be
000001f0: 0b32 d33d a0f5 283d d78a 85bd 7124 353d
00000200: 9522 68be 4d88 68bd cb44 68bd 86ca ec3e
00000210: 3044 4cbe 444a 96bc 348b 803d c6e3 c8be
00000220: 6092 8b3d fc50 0a3e 0f1e 78bc c015 61be
00000230: 0356 41be 3398 5ebd 9556 883d f64b d83c
00000240: 64cf 6dbe 407f 62be fc60 5d3d 0bab ef3d
00000250: f598 d53e 4442 43be cbaa e3bd 5a18 0a3d
00000260: 79b2 50be 95cf 72bd 65fd 143e e9b8 dc3d
00000270: fcf9 5fbe c73c 183e ee26 2dbd 00eb 933d
00000280: d47f 2abd 0e73 b53c ce92 763d 6642 c6bd
00000290: 6f37 b43d 87f3 013d 040f 1a3e 6ea7 acbd
000002a0: 7d7e 033e cc37 213e 7c71 cb3d 97ee a63d
000002b0: 01d7 2abe 2347 993d 2491 37be a24d 923d
000002c0: b1b4 6f3d 0874 373e f6d4 eabd 69a4 3bbe
000002d0: d8bd 9bbe ca8e 20bd bddd 813e 6c47 9abe
000002e0: 217c bf3d fc0b debb 5e3c 82bb d3cc 0b3e
000002f0: 658e bebd 9301 073e 72f7 8ebe 9df6 ebbc
00000300: 9f4e 5d3a 2592 47be 93c8 a03d 43f2 113e
00000310: ce84 0a3e fdfe 75be deef 8ebe af9c 083e
00000320: b672 15be 1c05 bc3d 022f 75be ec37 9c3d
00000330: e415 323d d815 013e 2fa3 84be c01f 42bd
00000340: 057f fe3d f4e6 c7be baaa 4fbe 812c af3d
00000350: 687c d13c d725 7dbe bb75 7abe 5bd3 52be
00000360: a902 66be 64cb 88be 8962 0abe 3f99 8bbe
00000370: 83d7 223e 59ff a53d 95b5 80be 5450 bb3e
00000380: 6fa7 873e e66c bebd 6016 183e 52b4 82bd
00000390: 4715 383e 100f 43be 7e6e 863d e0a4 8abc
000003a0: 6528 3cbe 11cc 043c ed00 7d3e 3c13 353e
000003b0: d0b3 233d 09d9 ab3e 0259 34bc 00e8 91bd
000003c0: 385a b2bb dddc 183e a9bd c3bd accb bcbd
000003d0: 684d 4cbe 6eb3 563e af33 8bbd 4fe7 d5bd
000003e0: fdc1 a7be 870f f73e 9385 04bd 1acf d73b
000003f0: c9ce 093c 4acb 393d 6e64 8e3d c378 9fbd
0.12686706 -0.07534842 -0.0417848 0.101693556 0.11596383 0.09481936 -0.37707007 -0.41718376
-0.1833746 0.038402557 0.049545646 -0.16332299 -0.13932922 0.00060873316 -0.07292211 -0.34751892
0.09119501 -0.23098686 0.03232972 -0.49991593 0.15189648 -0.17297186 -0.1995489 0.0056951744
-0.08224538 0.06407902 -0.22128429 0.09212044 -0.043388452 0.16536418 0.13946624 0.13510178
-0.38782504 -0.14226438 -0.15537101 0.124457344 -0.16014841 -0.13401175 0.1266532 0.052748945
-0.060103875 -0.11349585 -0.27128437 0.04021718 0.009367058 0.3003378 0.040434074 -0.4143907
-0.13771987 -0.27313942 0.060047098 0.11215464 0.074072674 0.022798104 -0.30196545 0.13888212
-0.051144395 0.08074542 0.107037246 0.009468994 0.10468623 -0.030094767 -0.19907545 0.09648403
0.049669128 0.14041866 -0.17757961 -0.10790778 0.1595864 -0.042373244 0.11475393 -0.025041338
-0.09878451 -0.21489646 -0.12973839 0.09700871 0.17573434 -0.1632306 0.10735907 -0.06622328
-0.13938048 -0.012097235 0.13850962 -0.1728648 0.05192712 0.110502265 0.044718903 -0.1678981
0.06888636 0.1020607 -0.17010021 -0.3311955 -0.4453509 -0.1929703 0.17692664 -0.12849179
0.0956204 0.097351305 -0.22367287 -0.3623695 -0.23394749 0.1399372 0.22029534 0.08939118
0.06408005 -0.17457187 -0.059553295 -0.22697833 -0.06230528 -0.45907977 -0.35727268 -0.0027025624
-0.15951072 -0.1357182 0.17569439 0.16559128 0.020672202 0.074886605 0.1446196 0.11343131
0.05133421 -0.0907341 0.15016802 -0.20653233 0.10312279 0.04124987 -0.06520622 0.044224206
-0.22669442 -0.05677061 -0.05670623 0.46248263 -0.19947886 -0.01834596 0.06276551 -0.39236277
0.06815028 0.13507456 -0.015143885 -0.21980953 -0.18880467 -0.054344367 0.06657139 0.026403408
-0.23223644 -0.22118855 0.05404757 0.11702546 0.4171826 -0.19068247 -0.111165605 0.03371463
-0.20380582 -0.059279997 0.14549787 0.10777456 -0.21872705 0.14866935 -0.042273454 0.07222557
-0.041625813 0.022149589 0.060198598 -0.09680633 0.087996356 0.031726386 0.1504479 -0.08430372
0.1284122 0.15743941 0.09933755 0.08150976 -0.1668358 0.074842714 -0.1792646 0.071437135
0.05852193 0.17915356 -0.114664 -0.18324436 -0.30418277 -0.039198674 0.25364485 -0.30132616
0.093498476 -0.006776331 -0.0039744815 0.13652353 -0.09304503 0.13184194 -0.2792316 -0.028804118
0.00084421964 -0.19489343 0.078507565 0.14252572 0.13527223 -0.24023052 -0.2791738 0.1334102
-0.1459454 0.09180662 -0.23943713 0.07627854 0.043477908 0.12605989 -0.2590575 -0.04739356
0.12426571 -0.3904339 -0.20279971 0.0855341 0.025572017 -0.24721466 -0.24458973 -0.20588438
-0.22461952 -0.26717675 -0.1351415 -0.27265355 0.15902524 0.08105344 -0.25138536 0.36584723
0.2649493 -0.092981145 0.14852285 -0.063820496 0.17976867 -0.19048715 0.065640435 -0.016924322
-0.18374784 0.008105294 0.24707384 0.17683119 0.039966404 0.33564022 -0.011007549 -0.071243286
-0.005442884 0.14928003 -0.09557659 -0.09218535 -0.19951403 0.20966884 -0.06796967 -0.10444509
-0.3276519 0.48254034 -0.03235395 0.0065859677 0.008411118 0.045359887 0.06952749 -0.07786705

fc2.bias f4 [10]
00000000: a0fd 9fbd 8a3c ce3d 7c10 b0bd 24fc d7bc
00000010: a2e8 ab3d a6e7 4a3e a185 df3c ba83 9f3c
00000020: 53b8 a3bd bd55 133d
-0.07812047 0.10070141 -0.08596894 -0.026365347 0.083939806 0.1981493 0.027285399 0.019471992
-0.079941414 0.03597044
